…
The output (if any) follows:

Files already downloaded and verified
=> loading checkpoint './pretrained/model_best.pth.tar'
=> loaded checkpoint './pretrained/model_best.pth.tar' (epoch 82) Prec1: 0.919200
=> loading checkpoint './pretrained/model_best.pth.tar'
=> loaded checkpoint './pretrained/model_best.pth.tar' (epoch 82) Prec1: 0.919200
In shape: 3, Out shape 64.
In shape: 64, Out shape 128.
In shape: 128, Out shape 256.
In shape: 256, Out shape 256.
In shape: 256, Out shape 256.
In shape: 256, Out shape 256.
In shape: 256, Out shape 256.
In shape: 256, Out shape 256.
vgg(
  (feature): Sequential(
    (0): Conv2d(3, 64, kernel_size=(3, 3), stride=(1, 1), padding=(1, 1), bias=False)
    (1): BatchNorm2d(64, eps=1e-05, momentum=0.1, affine=True, track_running_stats=True)
    (2): ReLU(inplace=True)
    (3): MaxPool2d(kernel_size=2, stride=2, padding=0, dilation=1, ceil_mode=False)
    (4): Conv2d(64, 128, kernel_size=(3, 3), stride=(1, 1), padding=(1, 1), bias=False)
    (5): BatchNorm2d(128, eps=1e-05, momentum=0.1, affine=True, track_running_stats=True)
    (6): ReLU(inplace=True)
    (7): MaxPool2d(kernel_size=2, stride=2, padding=0, dilation=1, ceil_mode=False)
    (8): Conv2d(128, 256, kernel_size=(3, 3), stride=(1, 1), padding=(1, 1), bias=False)
    (9): BatchNorm2d(256, eps=1e-05, momentum=0.1, affine=True, track_running_stats=True)
    (10): ReLU(inplace=True)
    (11): Conv2d(256, 256, kernel_size=(3, 3), stride=(1, 1), padding=(1, 1), bias=False)
    (12): BatchNorm2d(256, eps=1e-05, momentum=0.1, affine=True, track_running_stats=True)
    (13): ReLU(inplace=True)
    (14): MaxPool2d(kernel_size=2, stride=2, padding=0, dilation=1, ceil_mode=False)
    (15): Conv2d(256, 512, kernel_size=(3, 3), stride=(1, 1), padding=(1, 1), bias=False)
    (16): BatchNorm2d(512, eps=1e-05, momentum=0.1, affine=True, track_running_stats=True)
    (17): ReLU(inplace=True)
    (18): Conv2d(512, 512, kernel_size=(3, 3), stride=(1, 1), padding=(1, 1), bias=False)
    (19): BatchNorm2d(512, eps=1e-05, momentum=0.1, affine=True, track_running_stats=True)
    (20): ReLU(inplace=True)
    (21): MaxPool2d(kernel_size=2, stride=2, padding=0, dilation=1, ceil_mode=False)
    (22): Conv2d(512, 512, kernel_size=(3, 3), stride=(1, 1), padding=(1, 1), bias=False)
    (23): BatchNorm2d(512, eps=1e-05, momentum=0.1, affine=True, track_running_stats=True)
    (24): ReLU(inplace=True)
    (25): Conv2d(512, 512, kernel_size=(3, 3), stride=(1, 1), padding=(1, 1), bias=False)
    (26): BatchNorm2d(512, eps=1e-05, momentum=0.1, affine=True, track_running_stats=True)
    (27): ReLU(inplace=True)
  )
  (classifier): Sequential(
    (0): Linear(in_features=512, out_features=10, bias=True)
  )
)
Files already downloaded and verified
Train Epoch: 0 [0/50000 (0.0%)]	Loss: 0.110853
Train Epoch: 0 [6400/50000 (12.8%)]	Loss: 0.176070
Train Epoch: 0 [12800/50000 (25.6%)]	Loss: 0.107631
Train Epoch: 0 [19200/50000 (38.4%)]	Loss: 0.048108
Train Epoch: 0 [25600/50000 (51.2%)]	Loss: 0.048257
Train Epoch: 0 [32000/50000 (63.9%)]	Loss: 0.035810
Train Epoch: 0 [38400/50000 (76.7%)]	Loss: 0.041992
…
